data.pth (torch, 5015 bytes, 6 tensors)

l1.weight f4 [8, 54]
00000000: f61e 8b3e 70eb a2bd 735b 983e 5028 ed3e
00000010: 0db1 f93e 8667 a2be a747 143e b3a1 da3e
00000020: d154 9f3e d6ba 923e 7227 063f fd6c cb3e
00000030: add0 603e a55b 943e cd93 b8bd de8b 0c3f
00000040: c890 d63e bd6f a2be b635 c0bc 7374 4d3f
00000050: d795 b53e cd17 2a3f 8705 4b3f 5c92 073f
00000060: 47b4 f43e aaee e73e 8df7 95be 8b4d bcbe
00000070: b3dc 0dbe 8da7 52be c83c 94be 967c 953e
00000080: 5fa1 e23d e24f f23e 3e52 1ebd f6e9 e13e
00000090: 7b54 37be 9125 cd3e a2e2 483e 48b6 c53e
000000a0: 48a5 90be 7164 9ebe 7e0a 423e 762f 11be
000000b0: fdc4 bc3e 9d02 43bd aef9 323f 5f3a ad3e
000000c0: c727 bf3e 58c6 93be 70ea b03e a67f 2c3c
000000d0: 84f0 113e 4132 903e 633f 793e 0bc8 c03e
000000e0: fd0f 66be c1be b2be 927b 5abe bca2 333f
000000f0: 36ad 143e 17ea 42be c6f8 f4bd fc45 9ebe
00000100: 2b22 cdbe 8d6d 02be 1ea1 e03e 8514 c93b
00000110: 2333 d73e 76ec 78be 7474 8bbe 0487 1a3f
00000120: 34ba 083f a360 20bf 24c0 153f 6148 2cbf
00000130: f35a 28bf e1dc 1ebf 3de9 80bd f091 f9be
00000140: 911d 303f f5e7 e83e 940f b93e a5b0 4d3e
00000150: 956b f03e 5fcc 25be 6be2 ab3e 1962 a7be
00000160: db23 f43e 00f0 80be fee6 173f ebe3 d3bd
00000170: 3a18 47bd 88bf 183e 9ee6 083f 88aa e03e
00000180: 57a4 28bd e12a f63e df0c 8ebd 9709 be3e
00000190: ae64 193f 2b4b ce3e 3cb6 703e 3917 073f
000001a0: 5fbb 8cbe c0a1 e33e cc7b d8bd d6c3 da3e
000001b0: 63dd 55be 0dae c23e b8f3 833e d044 303d
000001c0: 8b99 aa3c ceb5 75bd e75c 303e fb7d 203d
000001d0: fa29 ce3e 06b2 853d b1bb 423c 6ba2 013f
000001e0: 0a1c 253f f20e e43e afeb 093f 6753 a83e
000001f0: df16 a03d 7b0a 1e3d c36d e83e c92a 9c3b
00000200: 503a 33be d450 d83d 9d65 1f3d b023 f53e
00000210: cec3 bd3e 6efa 21be 9444 023f 994f 353f
00000220: 071e df3e 1a45 ef3e 55fc 16bc 9599 2d3f
00000230: 621c 2cbe fa18 713e 2d77 163f edd4 d73e
00000240: 5c4c 043f 2fa1 843e 05af 683e 805a 9f3d
00000250: 84ae 173e d796 383f 77d0 0b3f f527 fa3e
00000260: 065a 133f 33a1 3e3f ba3a 33bf 6ad8 a1be
00000270: e86b a73e 8f85 783f c03f 823e 6ba7 073f
00000280: 2f25 163e 688c 7d3e 1cba f03e 349c 91be
00000290: 712d 123f 6ae2 1cbe 98fc 423d 6e27 233f
000002a0: 17ec de3e 7cd2 fd3e 9e73 213f 7639 003f
000002b0: 0428 5abe 21e5 acbe 3c27 403e 0e6e 06be
000002c0: 4b2c 5dbe c58d 07be 88d8 90be 6db7 333f
000002d0: 7c1c 88be 7def fdbe 1f3a df3e aded fdbe
000002e0: 66e5 fdbe b6dd 3dbf 536f 633e b317 42be
000002f0: 2d30 b2be 26cf b8be e8f6 b73d 5eec adbe
00000300: d98d c13e 8a8d e4bd a821 d63e d7ab 123f
00000310: 9855 29be 7d35 50be ad31 15be 79fb 113f
00000320: 6bf1 ea3e bce9 6d3e 265b 783e b1ab 23be
00000330: 7928 343d 3f3b ecbc c1c4 e13e b5e7 b0bd
00000340: eb08 613f 1459 9a3e 3b33 dbbd 044f 0dbe
00000350: ef6f 66be f901 dfbe d86b a23e 1876 fe3e
00000360: cf81 163f fdce 4d3c 9b9c e4be ea6e ac3e
00000370: fb76 923c 3fee 993d 24c8 59be 21d1 a8be
00000380: f69d 11bf 7298 1dbe b557 ac3e 8195 59be
00000390: 2d2c d6be 81de 7abe 06af 35be a2bd 073c
000003a0: 9c8e 0f3f 99f7 263e 1ea1 c23e 0725 e63e
000003b0: 20ec f03e 05b3 0c3f 3857 f23e f438 293e
000003c0: a057 25be b6c6 9c3e cb37 413e 5489 bbbe
000003d0: b2d1 093e 4dcd 00bf f4c7 263e 5394 d8be
000003e0: fd07 d93e 418b d6be 2502 bcbe cb86 c8bd
000003f0: 7214 64bd 2044 0ebf dd77 3ebe 9e07 80be
0.2717206 -0.079550624 0.2975727 0.46319818 0.48767892 -0.31719607 0.14480458 0.42701492
0.31119397 0.2865817 0.5240394 0.3973159 0.21954603 0.2897617 -0.09012566 0.5490092
0.41907334 -0.31725875 -0.023463111 0.8025581 0.3546588 0.6644257 0.7930531 0.529577
0.4779379 0.45299274 -0.2929043 -0.3677791 -0.13853721 -0.20571728 -0.28952622 0.29196614
0.11065935 0.4732657 -0.03865265 0.4412381 -0.1790332 0.40067723 0.19617704 0.38615632
-0.282511 -0.30936006 0.18949315 -0.14178261 0.3686904 -0.047609914 0.6991223 0.33833596
0.37335035 -0.28862262 0.34553862 0.010528481 0.14251906 0.2816334 0.24340586 0.3765262
-0.22467037 -0.3491116 -0.21336201 0.7017019 0.145192 -0.1903461 -0.11961512 -0.3091277
-0.4006513 -0.12737103 0.43872923 0.0061364793 0.42031202 -0.24308953 -0.27237284 0.6036227
0.53409123 -0.62647456 0.5849631 -0.6729794 -0.6576378 -0.62055784 -0.06294487 -0.48744154
0.68795115 0.4548947 0.36144698 0.20086916 0.4695708 -0.16191243 0.3357118 -0.3269203
0.47683606 -0.25183105 0.5933684 -0.10346206 -0.04860709 0.14916813 0.53476894 0.43880105
-0.04117235 0.4807959 -0.06936049 0.3711669 0.5991925 0.40291724 0.23507017 0.5276981
-0.27486703 0.44459343 -0.105704874 0.42727536 -0.20885234 0.38023415 0.2577188 0.043034375
0.020825168 -0.059987836 0.1722294 0.039182644 0.402664 0.06528096 0.011885569 0.50638455
0.6449591 0.44542652 0.5387525 0.3287613 0.07816862 0.038584214 0.45396242 0.0047658426
-0.17502713 0.10562292 0.038915265 0.4787879 0.3706345 -0.15818188 0.5088589 0.7082458
0.43577597 0.46732408 -0.009215434 0.6781247 -0.16807702 0.23544684 0.587756 0.42154637
0.51679015 0.25904223 0.22723015 0.077809334 0.14812666 0.72105163 0.5461497 0.4885861
0.5755924 0.7446472 -0.70011485 -0.31610423 0.32699513 0.97078794 0.25439262 0.52989835
0.14662622 0.24760592 0.4701699 -0.28439486 0.5710059 -0.15320745 0.047604173 0.6373204
0.43539497 0.4957465 0.6306704 0.5008768 -0.21304327 -0.3376856 0.18764967 -0.1312792
-0.21598928 -0.13237675 -0.282902 0.7020176 -0.26584232 -0.49596778 0.4359903 -0.49595395
-0.4958908 -0.7416643 0.22210436 -0.18954353 -0.3480238 -0.36095542 0.089826405 -0.33969396
0.37803534 -0.11159809 0.41822553 0.57293457 -0.16536558 -0.20332904 -0.14569731 0.5702434
0.45887312 0.23233694 0.2425352 -0.15983464 0.04398391 -0.028836844 0.44095424 -0.086379446
0.8790423 0.30146086 -0.10703131 -0.13799673 -0.22503637 -0.43556193 0.31722903 0.49699473
0.5879182 0.012561557 -0.4465073 0.3367837 0.017879 0.07516145 -0.21267754 -0.32972053
-0.56881654 -0.15390185 0.33660665 -0.21248437 -0.41830578 -0.24498941 -0.17742547 0.008284958
0.5607698 0.16305389 0.38013548 0.44950125 0.4705515 0.5496066 0.47332168 0.16525632
-0.16146708 0.30620354 0.1886894 -0.3662821 0.13458899 -0.50313264 0.16287214 -0.42300662
0.42388907 -0.41903117 -0.36720386 -0.09791335 -0.05568356 -0.555727 -0.18600412 -0.2500581

l1.bias f4 [8]
00000000: 306a a23e c74a 2c3f eb3b 333f d5eb fd3e
00000010: a3d0 6d3f a7c0 6b3f 53ad df3e 092c f43e
0.3172164 0.673016 0.700133 0.49593988 0.9289648 0.9209084 0.43686923 0.47689846

l2.weight f4 [8, 8]
00000000: c5bc 813f 2471 84be 5a1b 6c3f d427 56bf
00000010: 8c8f 303f 84ed 0dbe 6a68 b53d a7a6 37bf
00000020: 0102 3e3f bafd 54bf d262 223f ba4b 44bf
00000030: b6cc 61be afdf 27bd 8762 0b3f a39d 2b3f
00000040: 463d 46bf fb3a 923f 5cc8 b53e d252 32be
00000050: 1e76 8d3f 0299 413f 5d42 07bf 351b dc3d
00000060: 2840 ca3e 7a06 013f 21ac 863f dafc 0c3f
00000070: 0967 68bf 1a87 58bf a097 963e 3029 923f
00000080: c3c9 9f3f 35eb a9be 1181 c6be baba 2cbf
00000090: 5830 783f 6b5b 0f3e a252 993f e05b e03e
000000a0: dd4f b33e ba28 74be 8d8e acbe da51 36be
000000b0: 1df9 2cbe af1b 92be eaf4 81be 4a8f 91bc
000000c0: 1e59 c23e 6571 af3e 00e6 36bf aa02 b33f
000000d0: 797c 6d3f f610 b33f 521c fd3e c35a c73e
000000e0: 2cff 8cbf a962 b43e fe68 033f 78d4 0e3f
000000f0: 6205 523f a25a 863f bcf0 87bf 0e80 44bf
1.0135733 -0.2586757 0.92229235 -0.8365452 0.68969035 -0.13860136 0.08857806 -0.71738666
0.7422181 -0.83199656 0.6343204 -0.7667805 -0.22050747 -0.040984806 0.54447216 0.6703741
-0.77437246 1.142425 0.35504425 -0.17414406 1.1051672 0.75624096 -0.5283564 0.10747377
0.39502072 0.5040051 1.052128 0.5507332 -0.9078222 -0.8458115 0.29412556 1.141882
1.2483448 -0.3318726 -0.38770345 -0.6747242 0.96948767 0.13999717 1.1978343 0.43820095
0.35021868 -0.23843661 -0.33702508 -0.17804661 -0.16891904 -0.28536746 -0.25382167 -0.01776852
0.37958616 0.342662 -0.714447 1.3985188 0.92768055 1.3989551 0.4943567 0.38936433
-1.1015372 0.35231522 0.5133208 0.5579295 0.82039464 1.0496409 -1.0620341 -0.76757896

l2.bias f4 [8]
00000000: b98f c53d 0c51 013f fe0d 533f 13a3 063e
00000010: 24dd 843e 1f31 8cbe cfdb 8b3d a814 a33e
0.096465535 0.5051429 0.82443225 0.13148145 0.25949967 -0.27381226 0.068290345 0.31851697

l3.weight f4 [7, 8]
00000000: e8b1 753f ed7e 003f 3f8e 89bf 9fd3 b13e
00000010: dfd1 9b3d c20d 803e dbc9 9dbf 3177 1bbf
00000020: b9af 90bf fcc5 3f3e 1318 633e 4928 313f
00000030: c83d 7bbf 9afd cb3b a6e1 9ebf 3fe9 3cbf
00000040: c480 b5bf 171f 27bf e748 1a3f cd78 b7bf
00000050: e66e d4bf 99a4 3cbe dbab b13e e85d 533f
00000060: 83d7 803f 39d6 c73e 6eca 66be ff07 9bbf
00000070: 2ffc 433f cea0 8a3c 8938 0fbe 1435 7bbf
00000080: 31a7 4d3f 90f8 bebf 4c4b c53e c3ef 053e
00000090: 5173 bdbe f69a b3be 5f5d 5bbf abe5 003f
000000a0: 15c8 90bf cd50 bc3d 3e16 89bf cce0 b83e
000000b0: cc8a 7cbd 0dab 703e 9dbf fa3e d295 a6bf
000000c0: 267a c4bf b00a aebf 03e7 383d 5341 76bf
000000d0: 542e 143f 8018 58be 63fc 223f 5e8d e0be
0.9597459 0.50193673 -1.0746535 0.34731767 0.07608389 0.25010496 -1.2327226 -0.60728747
-1.1303626 0.18727869 0.22177152 0.69202095 -0.98141146 0.0062253 -1.2412612 -0.73793405
-1.4179921 -0.65281814 0.6026749 -1.433374 -1.6596344 -0.18422164 0.34701428 0.82565165
1.0065769 0.39030626 -0.22538158 -1.2111815 0.76556677 0.01692238 -0.1398641 -0.98127866
0.8033324 -1.4919605 0.3853401 0.13079743 -0.37002042 -0.35079163 -0.8568935 0.50350446
-1.131106 0.09195099 -1.0709913 0.36109006 -0.061655805 0.2350275 0.48974314 -1.3014472
-1.5349777 -1.3597012 0.045142185 -0.96193427 0.5788319 -0.21103096 0.6366636 -0.43857855

l3.bias f4 [7]
00000000: a2f7 45be 3ce7 21be 3e7f b7bc 5d01 e23e
00000010: 9a41 73bc 9bba cfbc 239a 9fbe
-0.19332746 -0.15810865 -0.022399541 0.44141665 -0.014847184 -0.025357535 -0.31172284
